…
I0802 10:57:08.746757 21789 net.cpp:322] The NetState phase (0) differed from the phase (1) specified by a rule in layer mnist
I0802 10:57:08.746778 21789 net.cpp:322] The NetState phase (0) differed from the phase (1) specified by a rule in layer accuracy
I0802 10:57:08.746862 21789 net.cpp:58] Initializing net from parameters: 
name: "LeNet"
state {
  phase: TRAIN
  level: 0
  stage: ""
}
layer {
  name: "mnist"
  type: "Data"
  top: "data"
  top: "label"
  include {
    phase: TRAIN
  }
  transform_param {
    scale: 0.00390625
  }
  data_param {
    source: "data/mnist/mnist_train_lmdb"
    batch_size: 64
    backend: LMDB
  }
}
layer {
  name: "conv1"
  type: "Convolution"
  bottom: "data"
  top: "conv1"
  param {
    lr_mult: 1
  }
  param {
    lr_mult: 2
  }
  convolution_param {
    num_output: 20
    kernel_size: 5
    stride: 1
    weight_filler {
      type: "xavier"
    }
    bias_filler {
      type: "constant"
    }
  }
}
layer {
  name: "pool1"
  type: "Pooling"
  bottom: "conv1"
  top: "pool1"
  pooling_param {
    pool: MAX
    kernel_size: 2
    stride: 2
  }
}
layer {
  name: "conv2"
  type: "Convolution"
  bottom: "pool1"
  top: "conv2"
  param {
    lr_mult: 1
  }
  param {
    lr_mult: 2
  }
  convolution_param {
    num_output: 50
    kernel_size: 5
    stride: 1
    weight_filler {
      type: "xavier"
    }
    bias_filler {
      type: "constant"
    }
  }
}
layer {
  name: "pool2"
  type: "Pooling"
  bottom: "conv2"
  top: "pool2"
  pooling_param {
    pool: MAX
    kernel_size: 2
    stride: 2
  }
}
layer {
  name: "ip1"
  type: "InnerProduct"
  bottom: "pool2"
  top: "ip1"
  param {
    lr_mult: 1
  }
  param {
    lr_mult: 2
  }
  inner_product_param {
    num_output: 500
    weight_filler {
      type: "xavier"
    }
    bias_filler {
      type: "constant"
    }
  }
}
layer {
  name: "relu1"
  type: "ReLU"
  bottom: "ip1"
  top: "ip1"
}
layer {
  name: "ip2"
  type: "InnerProduct"
  bottom: "ip1"
  top: "ip2"
  param {
    lr_mult: 1
  }
  param {
    lr_mult: 2
  }
  inner_product_param {
    num_output: 10
    weight_filler {
      type: "xavier"
    }
    bias_filler {
      type: "constant"
    }
  }
}
layer {
  name: "loss"
  type: "SoftmaxWithLoss"
  bottom: "ip2"
  bottom: "label"
  top: "loss"
}
I0802 10:57:08.746942 21789 layer_factory.hpp:77] Creating layer mnist
I0802 10:57:08.750346 21789 net.cpp:100] Creating Layer mnist
I0802 10:57:08.750365 21789 net.cpp:408] mnist -> data
I0802 10:57:08.750388 21789 net.cpp:408] mnist -> label
I0802 10:57:08.752640 21795 db_lmdb.cpp:35] Opened lmdb data/mnist/mnist_train_lmdb
I0802 10:57:08.766152 21789 data_layer.cpp:41] output data size: 64,1,28,28
I0802 10:57:08.767241 21789 net.cpp:150] Setting up mnist
I0802 10:57:08.767261 21789 net.cpp:157] Top shape: 64 1 28 28 (50176)
I0802 10:57:08.767269 21789 net.cpp:157] Top shape: 64 (64)
I0802 10:57:08.767273 21789 net.cpp:165] Memory required for data: 200960
I0802 10:57:08.767283 21789 layer_factory.hpp:77] Creating layer conv1
I0802 10:57:08.767316 21789 net.cpp:100] Creating Layer conv1
I0802 10:57:08.767328 21789 net.cpp:434] conv1 <- data
I0802 10:57:08.767343 21789 net.cpp:408] conv1 -> conv1
I0802 10:57:09.002306 21789 net.cpp:150] Setting up conv1
I0802 10:57:09.002346 21789 net.cpp:157] Top shape: 64 20 24 24 (737280)
I0802 10:57:09.002352 21789 net.cpp:165] Memory required for data: 3150080
I0802 10:57:09.002374 21789 layer_factory.hpp:77] Creating layer pool1
I0802 10:57:09.002393 21789 net.cpp:100] Creating Layer pool1
I0802 10:57:09.002427 21789 net.cpp:434] pool1 <- conv1
I0802 10:57:09.002444 21789 net.cpp:408] pool1 -> pool1
I0802 10:57:09.002508 21789 net.cpp:150] Setting up pool1
I0802 10:57:09.002518 21789 net.cpp:157] Top shape: 64 20 12 12 (184320)
I0802 10:57:09.002522 21789 net.cpp:165] Memory required for data: 3887360
I0802 10:57:09.002528 21789 layer_factory.hpp:77] Creating layer conv2
I0802 10:57:09.002553 21789 net.cpp:100] Creating Layer conv2
I0802 10:57:09.002560 21789 net.cpp:434] conv2 <- pool1
I0802 10:57:09.002568 21789 net.cpp:408] conv2 -> conv2
I0802 10:57:09.003900 21789 net.cpp:150] Setting up conv2
I0802 10:57:09.003918 21789 net.cpp:157] Top shape: 64 50 8 8 (204800)
I0802 10:57:09.003926 21789 net.cpp:165] Memory required for data: 4706560
I0802 10:57:09.003937 21789 layer_factory.hpp:77] Creating layer pool2
I0802 10:57:09.003947 21789 net.cpp:100] Creating Layer pool2
I0802 10:57:09.003953 21789 net.cpp:434] pool2 <- conv2
I0802 10:57:09.003959 21789 net.cpp:408] pool2 -> pool2
I0802 10:57:09.004004 21789 net.cpp:150] Setting up pool2
I0802 10:57:09.004012 21789 net.cpp:157] Top shape: 64 50 4 4 (51200)
I0802 10:57:09.004017 21789 net.cpp:165] Memory required for data: 4911360
I0802 10:57:09.004022 21789 layer_factory.hpp:77] Creating layer ip1
I0802 10:57:09.004037 21789 net.cpp:100] Creating Layer ip1
I0802 10:57:09.004043 21789 net.cpp:434] ip1 <- pool2
I0802 10:57:09.004050 21789 net.cpp:408] ip1 -> ip1
I0802 10:57:09.007802 21789 net.cpp:150] Setting up ip1
I0802 10:57:09.007818 21789 net.cpp:157] Top shape: 64 500 (32000)
I0802 10:57:09.007825 21789 net.cpp:165] Memory required for data: 5039360
I0802 10:57:09.007836 21789 layer_factory.hpp:77] Creating layer relu1
I0802 10:57:09.007845 21789 net.cpp:100] Creating Layer relu1
I0802 10:57:09.007851 21789 net.cpp:434] relu1 <- ip1
I0802 10:57:09.007858 21789 net.cpp:395] relu1 -> ip1 (in-place)
I0802 10:57:09.008075 21789 net.cpp:150] Setting up relu1
I0802 10:57:09.008088 21789 net.cpp:157] Top shape: 64 500 (32000)
I0802 10:57:09.008095 21789 net.cpp:165] Memory required for data: 5167360
I0802 10:57:09.008100 21789 layer_factory.hpp:77] Creating layer ip2
I0802 10:57:09.008110 21789 net.cpp:100] Creating Layer ip2
I0802 10:57:09.008116 21789 net.cpp:434] ip2 <- ip1
I0802 10:57:09.008122 21789 net.cpp:408] ip2 -> ip2
I0802 10:57:09.008921 21789 net.cpp:150] Setting up ip2
I0802 10:57:09.008937 21789 net.cpp:157] Top shape: 64 10 (640)
I0802 10:57:09.008944 21789 net.cpp:165] Memory required for data: 5169920
I0802 10:57:09.008955 21789 layer_factory.hpp:77] Creating layer loss
I0802 10:57:09.008965 21789 net.cpp:100] Creating Layer loss
I0802 10:57:09.008972 21789 net.cpp:434] loss <- ip2
I0802 10:57:09.008977 21789 net.cpp:434] loss <- label
I0802 10:57:09.008986 21789 net.cpp:408] loss -> loss
I0802 10:57:09.009006 21789 layer_factory.hpp:77] Creating layer loss
…
I0802 10:57:09.009850 21789 solver.cpp:181] Creating test net (#0) specified by net file: prototxt/mnist_lenet_model.prototxt
I0802 10:57:09.009896 21789 net.cpp:322] The NetState phase (1) differed from the phase (0) specified by a rule in layer mnist
I0802 10:57:09.009991 21789 net.cpp:58] Initializing net from parameters: 
name: "LeNet"
state {
  phase: TEST
}
layer {
  name: "mnist"
  type: "Data"
  top: "data"
  top: "label"
  include {
    phase: TEST
  }
  transform_param {
    scale: 0.00390625
  }
  data_param {
    source: "data/mnist/mnist_test_lmdb"
    batch_size: 100
    backend: LMDB
  }
}
layer {
  name: "conv1"
  type: "Convolution"
  bottom: "data"
  top: "conv1"
  param {
    lr_mult: 1
  }
  param {
    lr_mult: 2
  }
  convolution_param {
    num_output: 20
    kernel_size: 5
    stride: 1
    weight_filler {
      type: "xavier"
    }
    bias_filler {
      type: "constant"
    }
  }
}
layer {
  name: "pool1"
  type: "Pooling"
  bottom: "conv1"
  top: "pool1"
  pooling_param {
    pool: MAX
    kernel_size: 2
    stride: 2
  }
}
layer {
  name: "conv2"
  type: "Convolution"
  bottom: "pool1"
  top: "conv2"
  param {
    lr_mult: 1
  }
  param {
    lr_mult: 2
  }
  convolution_param {
    num_output: 50
    kernel_size: 5
    stride: 1
    weight_filler {
      type: "xavier"
    }
    bias_filler {
      type: "constant"
    }
  }
}
layer {
  name: "pool2"
  type: "Pooling"
  bottom: "conv2"
  top: "pool2"
  pooling_param {
    pool: MAX
    kernel_size: 2
    stride: 2
  }
}
layer {
  name: "ip1"
  type: "InnerProduct"
  bottom: "pool2"
  top: "ip1"
  param {
    lr_mult: 1
  }
  param {
    lr_mult: 2
  }
  inner_product_param {
    num_output: 500
    weight_filler {
      type: "xavier"
    }
    bias_filler {
      type: "constant"
    }
  }
}
layer {
  name: "relu1"
  type: "ReLU"
  bottom: "ip1"
  top: "ip1"
}
layer {
  name: "ip2"
  type: "InnerProduct"
  bottom: "ip1"
  top: "ip2"
  param {
    lr_mult: 1
  }
  param {
    lr_mult: 2
  }
  inner_product_param {
    num_output: 10
    weight_filler {
      type: "xavier"
    }
    bias_filler {
      type: "constant"
    }
  }
}
layer {
  name: "accuracy"
  type: "Accuracy"
  bottom: "ip2"
  bottom: "label"
  top: "accuracy"
  include {
    phase: TEST
  }
}
layer {
  name: "loss"
  type: "SoftmaxWithLoss"
  bottom: "ip2"
  bottom: "label"
  top: "loss"
}
I0802 10:57:09.010062 21789 layer_factory.hpp:77] Creating layer mnist
I0802 10:57:09.010179 21789 net.cpp:100] Creating Layer mnist
I0802 10:57:09.010190 21789 net.cpp:408] mnist -> data
I0802 10:57:09.010200 21789 net.cpp:408] mnist -> label
I0802 10:57:09.012503 21797 db_lmdb.cpp:35] Opened lmdb data/mnist/mnist_test_lmdb
I0802 10:57:09.012684 21789 data_layer.cpp:41] output data size: 100,1,28,28
I0802 10:57:09.013939 21789 net.cpp:150] Setting up mnist
I0802 10:57:09.013957 21789 net.cpp:157] Top shape: 100 1 28 28 (78400)
I0802 10:57:09.013964 21789 net.cpp:157] Top shape: 100 (100)
I0802 10:57:09.013968 21789 net.cpp:165] Memory required for data: 314000
I0802 10:57:09.013973 21789 layer_factory.hpp:77] Creating layer label_mnist_1_split
I0802 10:57:09.013985 21789 net.cpp:100] Creating Layer label_mnist_1_split
I0802 10:57:09.013990 21789 net.cpp:434] label_mnist_1_split <- label
I0802 10:57:09.013996 21789 net.cpp:408] label_mnist_1_split -> label_mnist_1_split_0
I0802 10:57:09.014005 21789 net.cpp:408] label_mnist_1_split -> label_mnist_1_split_1
I0802 10:57:09.014102 21789 net.cpp:150] Setting up label_mnist_1_split
I0802 10:57:09.014113 21789 net.cpp:157] Top shape: 100 (100)
I0802 10:57:09.014118 21789 net.cpp:157] Top shape: 100 (100)
I0802 10:57:09.014123 21789 net.cpp:165] Memory required for data: 314800
I0802 10:57:09.014127 21789 layer_factory.hpp:77] Creating layer conv1
I0802 10:57:09.014149 21789 net.cpp:100] Creating Layer conv1
I0802 10:57:09.014155 21789 net.cpp:434] conv1 <- data
I0802 10:57:09.014163 21789 net.cpp:408] conv1 -> conv1
I0802 10:57:09.015604 21789 net.cpp:150] Setting up conv1
I0802 10:57:09.015621 21789 net.cpp:157] Top shape: 100 20 24 24 (1152000)
I0802 10:57:09.015627 21789 net.cpp:165] Memory required for data: 4922800
I0802 10:57:09.015638 21789 layer_factory.hpp:77] Creating layer pool1
I0802 10:57:09.015660 21789 net.cpp:100] Creating Layer pool1
I0802 10:57:09.015664 21789 net.cpp:434] pool1 <- conv1
I0802 10:57:09.015674 21789 net.cpp:408] pool1 -> pool1
I0802 10:57:09.015724 21789 net.cpp:150] Setting up pool1
I0802 10:57:09.015735 21789 net.cpp:157] Top shape: 100 20 12 12 (288000)
I0802 10:57:09.015739 21789 net.cpp:165] Memory required for data: 6074800
I0802 10:57:09.015745 21789 layer_factory.hpp:77] Creating layer conv2
I0802 10:57:09.015756 21789 net.cpp:100] Creating Layer conv2
I0802 10:57:09.015763 21789 net.cpp:434] conv2 <- pool1
I0802 10:57:09.015769 21789 net.cpp:408] conv2 -> conv2
I0802 10:57:09.017168 21789 net.cpp:150] Setting up conv2
I0802 10:57:09.017189 21789 net.cpp:157] Top shape: 100 50 8 8 (320000)
I0802 10:57:09.017210 21789 net.cpp:165] Memory required for data: 7354800
I0802 10:57:09.017220 21789 layer_factory.hpp:77] Creating layer pool2
I0802 10:57:09.017228 21789 net.cpp:100] Creating Layer pool2
I0802 10:57:09.017235 21789 net.cpp:434] pool2 <- conv2
I0802 10:57:09.017246 21789 net.cpp:408] pool2 -> pool2
I0802 10:57:09.017290 21789 net.cpp:150] Setting up pool2
I0802 10:57:09.017302 21789 net.cpp:157] Top shape: 100 50 4 4 (80000)
I0802 10:57:09.017307 21789 net.cpp:165] Memory required for data: 7674800
I0802 10:57:09.017315 21789 layer_factory.hpp:77] Creating layer ip1
I0802 10:57:09.017323 21789 net.cpp:100] Creating Layer ip1
I0802 10:57:09.017329 21789 net.cpp:434] ip1 <- pool2
I0802 10:57:09.017344 21789 net.cpp:408] ip1 -> ip1
I0802 10:57:09.021071 21789 net.cpp:150] Setting up ip1
I0802 10:57:09.021088 21789 net.cpp:157] Top shape: 100 500 (50000)
I0802 10:57:09.021095 21789 net.cpp:165] Memory required for data: 7874800
I0802 10:57:09.021106 21789 layer_factory.hpp:77] Creating layer relu1
I0802 10:57:09.021116 21789 net.cpp:100] Creating Layer relu1
I0802 10:57:09.021121 21789 net.cpp:434] relu1 <- ip1
I0802 10:57:09.021127 21789 net.cpp:395] relu1 -> ip1 (in-place)
I0802 10:57:09.021313 21789 net.cpp:150] Setting up relu1
I0802 10:57:09.021324 21789 net.cpp:157] Top shape: 100 500 (50000)
I0802 10:57:09.021329 21789 net.cpp:165] Memory required for data: 8074800
I0802 10:57:09.021334 21789 layer_factory.hpp:77] Creating layer ip2
I0802 10:57:09.021344 21789 net.cpp:100] Creating Layer ip2
I0802 10:57:09.021350 21789 net.cpp:434] ip2 <- ip1
I0802 10:57:09.021358 21789 net.cpp:408] ip2 -> ip2
I0802 10:57:09.021507 21789 net.cpp:150] Setting up ip2
I0802 10:57:09.021515 21789 net.cpp:157] Top shape: 100 10 (1000)
I0802 10:57:09.021519 21789 net.cpp:165] Memory required for data: 8078800
I0802 10:57:09.021528 21789 layer_factory.hpp:77] Creating layer ip2_ip2_0_split
I0802 10:57:09.021536 21789 net.cpp:100] Creating Layer ip2_ip2_0_split
I0802 10:57:09.021541 21789 net.cpp:434] ip2_ip2_0_split <- ip2
I0802 10:57:09.021548 21789 net.cpp:408] ip2_ip2_0_split -> ip2_ip2_0_split_0
I0802 10:57:09.021556 21789 net.cpp:408] ip2_ip2_0_split -> ip2_ip2_0_split_1
I0802 10:57:09.021594 21789 net.cpp:150] Setting up ip2_ip2_0_split
I0802 10:57:09.021601 21789 net.cpp:157] Top shape: 100 10 (1000)
I0802 10:57:09.021606 21789 net.cpp:157] Top shape: 100 10 (1000)
I0802 10:57:09.021611 21789 net.cpp:165] Memory required for data: 8086800
I0802 10:57:09.021615 21789 layer_factory.hpp:77] Creating layer accuracy
I0802 10:57:09.021623 21789 net.cpp:100] Creating Layer accuracy
I0802 10:57:09.021630 21789 net.cpp:434] accuracy <- ip2_ip2_0_split_0
I0802 10:57:09.021636 21789 net.cpp:434] accuracy <- label_mnist_1_split_0
I0802 10:57:09.021642 21789 net.cpp:408] accuracy -> accuracy
…
